Projects/key_ch03_ex03_gesture_profiler/pretrained_models/small_mlp_mnist.tflite (tflite, 53784 bytes, 6 tensors)

sequential/dense/BiasAdd/ReadVariableOp/resource f4 [16]
-0.029068083 -0.025355889 -0.025719162 -0.033407494 -0.014586721 -0.03778142 -0.018641904 -0.021779936
-0.033817608 -0.003145469 -0.034708377 -0.014317602 -0.016212532 -0.022159005 -0.0084481295 -0.1323479
00000000: 3020 eebc 27b7 cfbc feb0 d2bc 4cd6 08bd
00000010: 24fd 6ebc b1c0 1abd e8b6 98bc d66b b2bc
00000020: 5584 0abd 3624 4ebb 5f2a 0ebd 6094 6abc
00000030: 25d0 84bc cd86 b5bc 066a 0abc 3586 07be

sequential/dense_1/BiasAdd/ReadVariableOp/resource f4 [16]
-0.17366835 0.63102007 0.3806763 -0.027905688 -0.0037541464 -0.15471433 -0.054752447 0.010468685
-0.03513762 0.6707035 -0.14857092 -0.0010739975 -0.03950461 -0.000882843 -0.21400791 -0.11627337
00000000: 1ed6 31be 888a 213f 01e8 c23e 789a e4bc
00000010: 2008 76bb 6f6d 1ebe 1a44 60bd d984 2b3c
00000020: 77ec 0fbd 39b3 2b3f fa22 18be 60c5 8cba
00000030: 96cf 21bd 976e 67ba e424 5bbe bc20 eebd

sequential/dense_2/BiasAdd/ReadVariableOp/resource f4 [10]
-0.5049559 -0.6969505 -0.1736408 0.27870253 -0.33242303 0.42235437 -0.2016284 -0.5402868
0.84096724 -0.23537254
00000000: ca44 01bf 596b 32bf e5ce 31be 19b2 8e3e
00000010: 5a33 aabe d53e d83e ad77 4ebe 3c50 0abf
00000020: a149 573f 8005 71be

sequential/dense/MatMul f4 [16, 784]
-0.07716856 0.07581644 -0.017011479 0.054230943 0.03645172 -0.060093656 -0.06745803 -0.043577038
0.06695533 -0.03396892 0.07357505 -0.032823823 0.055084303 0.008243389 0.06166102 0.001035519
-0.06325252 -0.031742856 0.00827907 -0.02100046 0.08466853 0.0027467385 -0.07908388 -0.06618372
0.06336908 -0.014693446 0.049685985 -0.0018235147 0.06255843 0.02112253 -0.021756329 0.062446952
-0.021840014 0.0470016 -0.043070722 0.01928085 0.0025971823 -0.06801535 -0.03302295 -0.07608538
-0.05211374 0.05454591 -0.0466146 -0.05787785 0.076985925 -0.027466495 -0.07090159 -0.04270862
0.024147905 0.08132203 0.008828424 -0.08019596 0.067381084 0.06379923 -0.06608837 0.008109033
-0.07981373 -0.037151903 -0.041873403 0.047783047 -0.07502554 -0.026439112 0.033083174 0.07091361
0.08190881 -0.03297994 -0.01280148 0.06264237 -0.09339284 0.049282376 0.002270992 -0.050736357
-0.05257182 0.07994295 -0.06520504 -0.046234604 0.01723477 0.0013230065 -0.07284054 0.047064215
0.010349207 -0.072070986 0.06761035 -0.0058919564 0.03678605 0.068921566 -0.08658546 -0.06646503
0.036682516 -0.06173825 0.045157466 0.06248579 -0.090630285 0.03371116 -0.078228764 -0.08324468
-0.07222215 0.021266844 -0.0882264 -0.0905851 -0.09251926 -0.09916467 -0.04725234 0.036871236
-0.0115311 -0.06688464 -0.068545386 0.013500215 -0.0372406 -0.014567496 -0.0450291 0.07709764
-0.021258615 0.010862239 0.07930495 0.054642916 -0.082760975 0.039721828 0.056376364 -0.014784279
-0.007131016 0.03033412 0.057977498 -0.078903124 0.07651159 0.01749684 0.06388902 -0.06584338
-0.07755575 -0.047340203 -0.031191876 0.09144907 0.045490578 -0.04766056 0.045562804 -0.028242908
-0.035319097 0.07381176 -0.051124595 -0.055775836 0.019887239 0.07577963 -0.011037551 -0.03378162
0.049582265 -0.010988949 -0.04279903 0.072118565 -0.07391049 0.040086422 -0.04333526 0.052988805
0.042620864 -0.07409481 -0.091527574 -0.019396106 0.012042416 -0.042099785 -0.012044407 0.04637693
0.0030538924 0.03514941 0.058603987 0.050000966 -0.02184679 -0.06607459 -0.038546413 -0.07294416
-0.010312185 0.019818835 -0.07088576 -0.039827466 0.033547476 0.030473102 -0.008105512 -0.0640052
-0.009994396 0.0011750694 0.06273485 -0.058350693 0.03731514 0.022991685 -0.058240682 -0.122632645
-0.1130596 -0.050975457 -0.018954245 -0.019609714 0.026900528 0.010978129 0.11447914 -0.009133216
-0.038186084 -0.022799356 -0.05631347 0.027223486 -0.07510465 -0.037224356 0.07413771 -0.08039963
0.06443905 0.06628448 0.015662475 -0.020222789 -0.07566933 -0.0056978595 -0.06640779 -0.011110648
-0.04662217 0.012047795 -0.10203538 -0.043596502 -0.053791482 -0.05212192 -0.082465075 -0.038248386
0.054721378 0.04880884 0.054189034 -0.006527458 -0.011779805 -0.08138449 -0.035790943 -0.061378997
-0.051330958 -0.022402994 0.079161465 0.062392063 0.021462493 -0.039355844 -0.07826038 0.050678108
-0.058231074 0.05768287 -0.029732643 -0.03468706 -0.09390098 -0.08536788 -0.07523915 0.036069807
-0.058014635 -0.008537807 0.07909929 -0.014851641 -0.04117789 -0.050444935 -0.049105577 -0.0481642
-0.087160215 -0.010001746 -0.06934594 -0.007717505 0.0688107 -0.035940606 0.02484719 -0.065951556
00000000: 8d0a 9ebd a645 9b3d a85b 8bbc 4421 5e3d
00000010: 664e 153d c424 76bd 7027 8abd d67d 32bd
00000020: e01f 893d ff22 0bbd 84ae 963d 4672 06bd
00000030: 14a0 613d 480f 073c 4490 7c3d 40ba 873a
00000040: 8a8a 81bd cc04 02bd f0a4 073c 2809 acbc
00000050: b266 ad3d a002 343b bbf6 a1bd 558b 87bd
00000060: a6c7 813d c8bc 70bc 8883 4b3d 0003 efba
00000070: a21e 803d 2809 ad3c 543a b2bc 60c8 7f3d
00000080: d4e9 b2bc c084 403d ed6a 30bd e0f2 9d3c
00000090: 7d35 2a3b a24b 8bbd 1343 07bd a7d2 9bbd
000000a0: 3875 55bd 886b 5f3d f3ee 3ebd 5311 6dbd
000000b0: ccaa 9d3d 6a01 e1bc da34 91bd 3cef 2ebd
000000c0: d4d1 c53c 2a8c a63d 18a5 103c c83d a4bd
000000d0: 18ff 893d 2ca9 823d 5759 87bd c0db 043c
000000e0: 6275 a3bd 982c 18bd 7283 2bbd 28b8 433d
000000f0: fea6 99bd d696 d8bc 3982 073d 283b 913d
00000100: cebf a73d f915 07bd 4cbd 51bc a54a 803d
00000110: bf44 bfbd 51dc 493d ecd4 143b edd0 4fbd
00000120: 8c55 57bd 21b9 a33d 388a 85bd 7f60 3dbd
00000130: ef2f 8d3c bb68 ad3a 6c2d 95bd 68c6 403d
00000140: b88f 293c f499 93bd 4c77 8a3d 5011 c1bb
00000150: f8ac 163d c026 8d3d b853 b1bd d11e 88bd
00000160: 6840 163d 3fe1 7cbd 09f7 383d 1af1 7f3d
00000170: 5f9c b9bd b714 0a3d 6736 a0bd 307c aabd
00000180: 35e9 93bd ce37 ae3c 0bb0 b4bd ae84 b9bd
00000190: bd7a bdbd d916 cbbd ab8b 41bd 4b06 173d
000001a0: f0ec 3cbc d0fa 88bd 8661 8cbd 0130 5d3c
000001b0: 9989 18bd 82ac 6ebc 6f70 38bd 5ee5 9d3d
000001c0: 8c26 aebc 88f7 313c a26a a23d 40d1 5f3d
000001d0: 967e a9bd 5bb3 223d e7ea 663d c339 72bc
000001e0: 4cab e9bb 437f f83c d079 6d3d f697 a1bd
000001f0: 1cb2 9c3d 8855 8f3c 3fd8 823d e5d8 86bd
00000200: 8dd5 9ebd cde7 41bd 1b86 ffbc a649 bb3d
00000210: 5454 3a3d b837 43bd 10a0 3a3d ac5d e7bc
00000220: c2aa 10bd 9f2a 973d 0668 51bd 3475 64bd
00000230: 90ea a23c 5a32 9b3d d8d6 34bc 995e 0abd
00000240: c616 4b3d fe0a 34bc 094e 2fbd e6b2 933d
00000250: 625e 97bd a931 243d 5080 31bd ca0a 593d
00000260: 3793 2e3d 05bf 97bd cf72 bbbd 95e4 9ebc
00000270: 8e4d 453c d370 2cbd e855 45bc bcf5 3d3d
00000280: d023 483b d4f8 0f3d bc0a 703d d0cd 4c3d
00000290: 0af8 b2bc 1d52 87bd d8e2 1dbd bf63 95bd
000002a0: 70f4 28bc 1c5b a23c 8e2c 91bd 2022 23bd
000002b0: 1469 093d baa2 f93c fbcc 04bc 2915 83bd
000002c0: 89bf 23bc c904 9a3a 217b 803d 2301 6fbd
000002d0: c3d7 183d 0f59 bc3c c88d 6ebd d326 fbbd
000002e0: cb8b e7bd a4cb 50bd ef45 9bbc 8da4 a0bc
000002f0: 7f5e dc3c 9cdd 333c 0a74 ea3d 7ca3 15bc
00000300: 0369 1cbd b7c5 babc f4a8 66bd ca03 df3c
00000310: 77d0 99bd 9178 18bd 83d5 973d 90a8 a4bd
00000320: 9ff8 833d 28c0 873d 974e 803c 43aa a5bc
00000330: 86f8 9abd 1cb5 babb cf00 88bd 6f09 36bc
00000340: e3f6 3ebd 1d64 453c edf7 d0bd 3f92 32bd
00000350: 7554 5cbd cb7d 55bd 73e3 a8bd 57aa 1cbd
00000360: 8623 603d c7eb 473d 52f5 5d3d 49e4 d5bb
00000370: 1500 41bc e9ac a6bd 8699 12bd 8b68 7bbd
00000380: 6940 52bd 7c86 b7bc 681f a23d d28e 7f3d
00000390: 1cd2 af3c 9833 21bd fa46 a0bd d993 4f3d
000003a0: b583 6ebd e044 6c3d df91 f3bc 0514 0ebd
000003b0: 284f c0bd 5bd5 aebd fc16 9abd efbd 133d
000003c0: c1a0 6dbd 28e2 0bbc cffe a13d 4c54 73bc
000003d0: 26aa 28bd 599f 4ebd ee22 49bd d347 45bd
000003e0: 0e81 b2bd 5dde 23bc 3f05 8ebd 20e3 fcbb
000003f0: a0ec 8c3d 7536 13bd 568c cb3c 9c11 87bd

sequential/dense_1/MatMul f4 [16, 16]
0.2471558 -0.087871574 0.10342789 0.112115584 0.12881255 0.1069133 0.28799856 -0.37577713
-0.103955805 -0.38875848 -0.2611288 -0.2274108 -0.07855412 0.04881056 0.24266843 0.18664224
-0.27777916 0.10969193 -0.5038788 0.1970682 0.33297133 -0.29099447 -0.37491235 -0.28588024
-0.32391185 0.2960385 -0.42336023 0.38465223 -0.25036126 -0.078840636 -0.12713338 0.103306465
-0.13668446 0.26020923 0.09020407 -0.40791598 0.2739965 0.13293706 -0.015367779 0.053794414
-0.026017563 -0.2966234 0.3521273 0.33134854 -0.21265796 0.28724152 -0.04382528 -0.19059637
0.22128583 0.26250532 -0.40873677 0.28510597 -0.40262273 0.27029875 0.27305615 0.21308951
0.19578122 -0.16872829 -0.2308642 0.18919897 -0.20812188 -0.027937386 0.052453402 -0.042775914
-0.097533956 -0.27318144 0.12651566 -0.38360375 -0.147782 0.32477328 -0.14918874 -0.38297355
-0.2685901 -0.16336448 -0.33130774 -0.33208695 0.079935946 0.38292626 0.23790625 -0.25349241
0.44201332 0.33722436 -0.1798199 -0.252853 0.2723367 -0.20479171 -0.31928524 -0.011407833
0.09358796 0.34789664 -0.18304922 0.23478499 0.11816409 -0.16224965 0.04752326 -0.19674732
0.32037213 0.26481006 -0.14777014 -0.087556444 0.16711923 0.3701965 0.09974535 0.38835603
0.37476078 0.048386693 -0.23719825 -0.00037266788 -0.1314227 -0.23472023 -0.37804154 0.044632725
0.303538 -0.37819603 0.26179376 -0.27472425 -0.2006615 0.19822164 0.05476253 -0.07374289
-0.33586526 -0.0029768948 0.08959214 0.4303012 0.3098987 -0.26855057 -0.37556723 0.39793003
0.1070278 -0.28930828 0.065569505 0.17408241 0.20860451 -0.13369523 -0.01628285 -0.39430925
0.1669187 0.051360533 0.036778964 -0.432148 0.11931225 -0.12781829 0.21363206 0.23825654
0.29158998 -0.30451417 0.002255251 -0.23806153 -0.0015771216 -0.07272427 0.24466997 -0.15498461
-0.17627972 -0.22986944 -0.33039516 0.20818979 -0.058552604 0.42751142 -0.23914346 -0.1815357
-0.18203337 0.31620526 -0.05590165 -0.23056728 -0.35786137 -0.013995645 -0.04476703 -0.34755203
0.24617435 0.18742976 -0.066345125 0.0044544823 0.009118699 0.12365489 -0.371594 0.17478646
-0.21180247 0.30256683 -0.27199984 -0.41345266 -0.17764156 0.19620992 -0.43930066 0.35955933
-0.14056854 0.011636725 -0.06511114 -0.19570029 0.2084012 -0.050469343 0.32187766 -0.053189144
0.12622058 -0.3551204 0.03847476 0.242183 0.22491191 -0.4370208 -0.3947344 0.20486927
0.11500621 -0.18191221 0.14851293 -0.043180905 -0.36511186 0.4036828 0.34602106 -0.081085235
-0.23956987 -0.06995925 0.37040028 -0.20819542 0.36290556 0.21683438 0.33388498 -0.1183153
-0.20893154 0.3174372 -0.12207518 0.21152669 0.005657604 -0.11225807 -0.39160553 0.0017239517
-0.41490275 -0.1941295 -0.22720943 -0.25898525 0.20373644 0.37116703 0.37484154 0.3742227
0.052744947 -0.13821304 0.25504836 -0.018327499 -0.109077424 0.19777367 -0.037191015 0.041179843
0.06663008 -0.076012105 0.2705308 -0.081725426 0.14856468 0.34105948 0.35046393 0.27659786
-0.40194258 -1.6170614e-05 -0.33779964 0.2744917 0.17811024 0.087490015 -0.13897794 -0.30084565
00000000: 6916 7d3e 03f6 b3bd 00d2 d33d db9c e53d
00000010: 70e7 033e 5cf5 da3d 8c74 933e dc65 c0be
00000020: c8e6 d4bd 5a0b c7be adb2 85be 60de 68be
00000030: fce0 a0bd 95ed 473d 137e 783e 251f 3f3e
00000040: 1239 8ebe 2aa6 e03d 33fe 00bf 3fcc 493e
00000050: 387b aa3e 3afd 94be 83f4 bfbe e55e 92be
00000060: c6d7 a5be 5c92 973e acc2 d8be 23f1 c43e
00000070: 5a2f 80be 3377 a1bd 412f 02be 5792 d33d
00000080: 03f7 0bbe 253a 853e e9bc b83d 5dda d0be
00000090: 4549 8c3e a720 083e 23c9 7bbc 8857 5c3d
000000a0: c922 d5bc 06df 97be 084a b43e 84a6 a93e
000000b0: 02c3 59be 5211 933e 2382 33bd b22b 43be
000000c0: c198 623e 1967 863e f245 d1be 69f9 913e
000000d0: 9124 cebe 9964 8a3e 04ce 8b3e 2334 5a3e
000000e0: df7a 483e 1cc7 2cbe aa67 6cbe 60bd 413e
000000f0: e71d 55be f2dc e4bc 61d9 563d cc35 2fbd
00000100: e2bf c7bd 70de 8bbe 528d 013e b667 c4be
00000110: 2a54 17be af48 a63e efc4 18be 1c15 c4be
00000120: a484 89be 0549 27be 2ba1 a9be 4d07 aabe
00000130: 75b5 a33d e90e c43e b29d 733e c2c9 81be
00000140: 924f e23e aca8 ac3e b522 38be f375 81be
00000150: b76f 8b3e ebb4 51be 5b79 a3be ebe7 3abc
00000160: 0bab bf3d 821f b23e 4171 3bbe 7a6b 703e
00000170: 0400 f23d c624 26be c0a7 423d 2178 49be
00000180: d107 a43e 2f95 873e 0e51 17be cb50 b3bd
00000190: 4e21 2b3e 658a bd3e 4a47 cc3d 9ad6 c63e
000001a0: a5e0 bf3e 2031 463d 19e4 72be a362 c3b9
000001b0: ac93 06be 805a 70be a98e c1be ced0 363d
000001c0: 5569 9b3e e9a2 c1be d509 863e a8a8 8cbe
000001d0: 357a 4dbe 9dfa 4a3e ad4e 603d 8306 97bd
000001e0: 88f6 abbe 0218 43bb 157c b73d 7050 dc3e
000001f0: 0bab 9e3e 767f 89be 594a c0be 7cbd cb3e
00000200: 6431 db3d 3720 94be 4e49 863d a942 323e
00000210: 6c9c 553e 67e7 08be 9d63 85bc e7e2 c9be
00000220: bcec 2a3e 6c5f 523d 8aa5 163d 8142 ddbe
00000230: fb59 f43d cce2 02be 5dc2 5a3e 86f9 733e
00000240: 484b 953e 48e9 9bbe d5cc 133b 67c6 73be
00000250: 6bb7 ceba 76f0 94bd c48a 7a3e 49b4 1ebe
00000260: ac82 34be e562 6bbe 8e29 a9be b42f 553e
00000270: dbd4 6fbd c7e2 da3e 06e2 74be 7fe4 39be
00000280: f566 3abe a8e5 a13e 21f9 64bd d419 6cbe
00000290: 9b39 b7be fd4d 65bc a25d 37bd 57f2 b1be
000002a0: 2115 7c3e 96ed 3f3e f4df 87bd e8f6 913b
000002b0: 9866 153c c63e fd3d 9241 bebe 39fb 323e
000002c0: bfe2 58be 0aea 9a3e 9043 8bbe 11b0 d3be
000002d0: abe7 35be 41eb 483e 04ec e0be 2918 b83e
000002e0: 33f1 0fbe f6a7 3e3c fd58 85bd a865 48be
000002f0: 2067 553e f1b8 4ebd 26cd a43e dcdc 59bd
00000300: f83f 013e 57d2 b5be b697 1d3d d2fe 773e
00000310: 4f4f 663e 31c1 dfbe a11a cabe 40c9 513e
00000320: 6088 eb3d 3247 3abe c613 183e 76de 30bd
00000330: f1ef babe 83af ce3e ac29 b13e 0410 a6bd
00000340: ce51 75be cc46 8fbd 1ba5 bd3e 2e31 55be
00000350: c2ce b93e d509 5e3e f9f2 aa3e 4b4f f2bd
00000360: 26f2 55be 2187 a23e 8d02 fabd 749a 583e
00000370: 6c63 b93b 8fe7 e5bd 8580 c8be 38f6 e13a
00000380: 226e d4be e2c9 46be 97a9 68be b799 84be
00000390: 49a0 503e 9b09 be3e 3beb bf3e 1e9a bf3e
000003a0: 160b 583d b887 0dbe b395 823e 8d23 96bc
000003b0: fc63 dfbd 2e85 4a3e 9b55 18bd 32ac 283d
000003c0: 5a75 883d 3cac 9bbd 0383 8a3e a95f a7bd
000003d0: 5721 183e 599f ae3e 0270 b33e 3c9e 8d3e
000003e0: 6bcb cdbe 21a6 87b7 13f4 acbe 2d8a 8c3e
000003f0: 8862 363e f72d b33d 3c50 0ebe 7108 9abe

sequential/dense_2/MatMul f4 [10, 16]
-0.18184356 -0.32714978 0.26380578 -0.41305104 -0.33662447 0.14605159 0.404461 -0.47086316
-0.44469824 -0.30844334 -0.35718426 0.09133863 -0.14292026 -0.19014016 -0.46801808 -0.10359614
-0.08143804 -0.21814409 -0.4614564 -0.21858218 -0.25369856 -0.04225173 0.3188087 0.04459692
-0.075181276 0.14668643 0.23424898 -0.39974144 0.24735214 0.19059497 0.27289754 -0.30949232
-0.26588452 0.019307971 -0.09770294 -0.22777264 0.12951557 0.07653806 -0.102980934 0.13035098
-0.10804279 -0.38118008 0.1215925 -0.08712068 0.102151886 0.27126932 0.1874935 -0.2535663
0.023541085 0.47900903 -0.32571504 0.38786942 0.13501337 -0.26828188 -0.2071738 -0.15636617
-0.3606506 0.48771778 -0.012770746 -0.03699872 -0.08330778 0.22934863 0.42776638 0.03238923
0.14010525 0.2806529 -0.23578279 -0.42374003 -0.026206562 -0.3274523 -0.08716548 0.31430945
-0.15421078 0.12712045 -0.40751046 0.035415363 -0.43160024 0.30835786 -0.06477421 -0.17989746
-0.44427237 -0.018456189 -0.1747387 0.15969501 0.09674724 -0.094330706 -0.1338611 0.26528507
-0.20452417 0.56370294 0.00811104 -0.06384217 0.2643273 -0.28319445 -0.29429224 -0.38742048
-0.36597237 -0.036964208 0.12775043 -0.27575266 0.010655135 -0.2892259 0.08141786 -0.17976585
-0.057952154 -0.26803944 -0.00795807 -0.10754552 0.16595876 0.24278536 0.4765646 -0.063256815
0.3426122 0.43123505 -0.25985953 -0.23818542 -0.3238958 -0.19534837 -0.3123242 -0.18525685
0.19751279 -0.66045827 -0.41143066 0.30293888 -0.3951898 0.3854801 0.27048424 0.09038062
-0.11738483 0.41608775 0.013069148 -0.29120556 -0.43597427 -0.49300513 -0.20378941 -0.07952574
0.35904193 0.33041638 0.28655016 -0.20025925 0.15872173 -0.43950823 -0.011460087 0.31967396
-0.34950662 -0.50037843 -0.5215968 0.4404027 0.11986551 0.093666896 -0.30508366 0.12009673
0.07140998 -0.4103636 0.37134215 -0.13401164 -0.035902243 -0.47257546 -0.35730663 -0.03282515
00000000: 3335 3abe 2d80 a7be 8d11 873e 6d7b d3be
00000010: 0b5a acbe 8c8e 153e 8315 cf3e fa14 f1be
00000020: 7daf e3be 49ec 9dbe dbe0 b6be bf0f bb3d
00000030: b059 12be 1ab4 42be 11a0 efbe 372a d4bd
00000040: fdc8 a6bd 2a61 5fbe 0344 ecbe 02d4 5fbe
00000050: c7e4 81be 2610 2dbd e53a a33e 43ab 363d
00000060: a4f8 99bd f834 163e f7de 6f3e e9aa ccbe
00000070: e149 7d3e 542b 433e 3ab9 8b3e c775 9ebe
00000080: 0422 88be c02b 9e3c 7b18 c8bd 3b3d 69be
00000090: bb9f 043e fdbf 9c3d abe7 d2bd ba7a 053e
000000a0: 8a45 ddbd 092a c3be 7d05 f93d 546c b2bd
000000b0: 0235 d13d d0e3 8a3e 4cfe 3f3e 71d3 81be
000000c0: 3cd9 c03c ac40 f53e 1fc4 a6be d296 c63e
000000d0: f240 0a3e 3e5c 89be 5e25 54be 741e 20be
000000e0: 32a7 b8be 25b6 f93e 643c 51bc f88b 17bd
000000f0: 459d aabd 5eda 6a3e 3204 db3e 92aa 043d
00000100: c077 0f3e bdb1 8f3e 0b71 71be 74f4 d8be
00000110: 25af d6bc d4a7 a7be d183 b2bd 2bed a03e
00000120: 6ee9 1dbe dd2b 023e 36a5 d0be b30f 113d
00000130: b5fa dcbe 15e1 9d3e 57a8 84bd 0a37 38be
00000140: ab77 e3be 6f31 97bc b4ee 32be 1787 233e
00000150: 6b23 c63d 7530 c1bd e212 09be 72d3 873e
00000160: c96e 51be d64e 103f 2be4 043c afbf 82bd
00000170: e855 873e ddfe 90be 79ad 96be fa5b c6be
00000180: bb60 bbbe c867 17bd 02d1 023e 742f 8dbe
00000190: e092 2e3c 6b15 94be 68be a63d 8a14 38be
000001a0: 3d5f 6dbd 773c 89be 9162 02bc d340 dcbd
000001b0: 18f1 293e ba9c 783e 4600 f43e ca8c 81bd
000001c0: de6a af3e d7ca dc3e 4f0c 85be e1e6 73be
000001d0: acd5 a5be 6709 48be f5e8 9fbe f9b3 3dbe
000001e0: cb40 4a3e cb13 29bf 0aa7 d2be ce1a 9b3e
000001f0: 5156 cabe a65d c53e e97c 8a3e 7919 b93d
00000200: 7567 f0bd 7409 d53e fb1f 563c e518 95be
00000210: 0538 dfbe 2b6b fcbe 2cae 50be 64de a2bd
00000220: 58d4 b73e 562c a93e b4b6 923e c310 4dbe
00000230: f387 223e 3907 e1be 17c3 3bbc 4eac a33e
00000240: 88f2 b2be cd18 00bf 5e87 05bf 767c e13e
00000250: 0c7c f53d 6ed4 bf3d ed33 9cbe 46f5 f53d
00000260: 653f 923d 2e1b d2be 8f20 be3e 593a 09be
00000270: 3b0e 13bd 69f5 f1be e5f0 b6be aa73 06bd
